Loading data...
Constructing model...
Skill_Evolve_Hetero(
  (criterion): NLLLoss()
  (dyskillhgnn): DySkillHGNN(
    (hgnn): HeteroHGNN(
      (heterognn): HeteroConv(num_relations=3)
    )
    (init_skill_emb): Embedding(11721, 128)
  )
  (init_skill_emb): Embedding(11721, 128)
  (inflow_amplifier): Linear(in_features=1, out_features=128, bias=True)
  (outflow_amplifier): Linear(in_features=1, out_features=128, bias=True)
  (skill_amplifier): Linear(in_features=256, out_features=128, bias=True)
  (position_encoder): PositionalEncoding(
    (dropout): Dropout(p=0.2, inplace=False)
  )
  (transformer_encoder): TransformerEncoder(
    (layers): ModuleList(
      (0): TransformerEncoderLayer(
        (self_attn): MultiheadAttention(
          (out_proj): NonDynamicallyQuantizableLinear(in_features=128, out_features=128, bias=True)
        )
        (linear1): Linear(in_features=128, out_features=16, bias=True)
        (dropout): Dropout(p=0.2, inplace=False)
        (linear2): Linear(in_features=16, out_features=128, bias=True)
        (norm1): LayerNorm((128,), eps=1e-05, elementwise_affine=True)
        (norm2): LayerNorm((128,), eps=1e-05, elementwise_affine=True)
        (dropout1): Dropout(p=0.2, inplace=False)
        (dropout2): Dropout(p=0.2, inplace=False)
      )
      (1): TransformerEncoderLayer(
        (self_attn): MultiheadAttention(
          (out_proj): NonDynamicallyQuantizableLinear(in_features=128, out_features=128, bias=True)
        )
        (linear1): Linear(in_features=128, out_features=16, bias=True)
        (dropout): Dropout(p=0.2, inplace=False)
        (linear2): Linear(in_features=16, out_features=128, bias=True)
        (norm1): LayerNorm((128,), eps=1e-05, elementwise_affine=True)
        (norm2): LayerNorm((128,), eps=1e-05, elementwise_affine=True)
        (dropout1): Dropout(p=0.2, inplace=False)
        (dropout2): Dropout(p=0.2, inplace=False)
      )
    )
  )
  (testlinear): Linear(in_features=2432, out_features=10, bias=True)
  (inoutflow_merge): Linear(in_features=384, out_features=128, bias=True)
  (inflow_attention): Linear(in_features=256, out_features=128, bias=False)
  (outflow_attention): Linear(in_features=256, out_features=128, bias=False)
  (inflow_decoder): Linear(in_features=128, out_features=10, bias=True)
  (outflow_decoder): Linear(in_features=128, out_features=10, bias=True)
)
wandb: Currently logged in as: wchao. Use `wandb login --relogin` to force relogin
wandb: - Waiting for wandb.init()...wandb: \ Waiting for wandb.init()...wandb: | Waiting for wandb.init()...wandb: / Waiting for wandb.init()...wandb: - Waiting for wandb.init()...wandb: \ Waiting for wandb.init()...wandb: | Waiting for wandb.init()...wandb: / Wa
…
